…
work but in a degraded version that might require more space on your disk. This warning can be disabled by setting the `HF_HUB_DISABLE_SYMLINKS_WARNING` environment variable. For more details, see https://huggingface.co/docs/huggingface_hub/how-to-cache#limitations.\nTo support symlinks on Windows, you either need to activate Developer Mode or to run Python as an administrator. In order to activate developer mode, see this article: https://docs.microsoft.com/en-us/windows/apps/get-started/enable-your-device-for-development\n  warnings.warn(message)\n\n\nConvNeXt(\n  (stem): Sequential(\n    (0): Conv2d(3, 96, kernel_size=(4, 4), stride=(4, 4))\n    (1): LayerNorm2d((96,), eps=1e-06, elementwise_affine=True)\n  )\n  (stages): Sequential(\n    (0): ConvNeXtStage(\n      (downsample): Identity()\n      (blocks): Sequential(\n        (0): ConvNeXtBlock(\n          (conv_dw): Conv2d(96, 96, kernel_size=(7, 7), stride=(1, 1), padding=(3, 3), groups=96)\n          (norm): LayerNorm((96,), eps=1e-06, elementwise_affine=True)\n          (mlp): GlobalResponseNormMlp(\n            (fc1): Linear(in_features=96, out_features=384, bias=True)\n            (act): GELU()\n            (drop1): Dropout(p=0.0, inplace=False)\n            (grn): GlobalResponseNorm()\n            (fc2): Linear(in_features=384, out_features=96, bias=True)\n            (drop2): Dropout(p=0.0, inplace=False)\n          )\n          (shortcut): Identity()\n          (drop_path): Identity()\n        )\n        (1): ConvNeXtBlock(\n          (conv_dw): Conv2d(96, 96, kernel_size=(7, 7), stride=(1, 1), padding=(3, 3), groups=96)\n          (norm): LayerNorm((96,), eps=1e-06, elementwise_affine=True)\n          (mlp): GlobalResponseNormMlp(\n            (fc1): Linear(in_features=96, out_features=384, bias=True)\n            (act): GELU()\n            (drop1): Dropout(p=0.0, inplace=False)\n            (grn): GlobalResponseNorm()\n            (fc2): Linear(in_features=384, out_features=96, bias=True)\n            (drop2): Dropout(p=0.0, inplace=False)\n          )\n          (shortcut): Identity()\n          (drop_path): Identity()\n        )\n        (2): ConvNeXtBlock(\n          (conv_dw): Conv2d(96, 96, kernel_size=(7, 7), stride=(1, 1), padding=(3, 3), groups=96)\n          (norm): LayerNorm((96,), eps=1e-06, elementwise_affine=True)\n          (mlp): GlobalResponseNormMlp(\n            (fc1): Linear(in_features=96, out_features=384, bias=True)\n            (act): GELU()\n            (drop1): Dropout(p=0.0, inplace=False)\n            (grn): GlobalResponseNorm()\n            (fc2): Linear(in_features=384, out_features=96, bias=True)\n            (drop2): Dropout(p=0.0, inplace=False)\n          )\n          (shortcut): Identity()\n          (drop_path): Identity()\n        )\n      )\n    )\n    (1): ConvNeXtStage(\n      (downsample): Sequential(\n        (0): LayerNorm2d((96,), eps=1e-06, elementwise_affine=True)\n        (1): Conv2d(96, 192, kernel_size=(2, 2), stride=(2, 2))\n      )\n      (blocks): Sequential(\n        (0): ConvNeXtBlock(\n          (conv_dw): Conv2d(192, 192, kernel_size=(7, 7), stride=(1, 1), padding=(3, 3), groups=192)\n          (norm): LayerNorm((192,), eps=1e-06, elementwise_affine=True)\n          (mlp): GlobalResponseNormMlp(\n            (fc1): Linear(in_features=192, out_features=768, bias=True)\n            (act): GELU()\n            (drop1): Dropout(p=0.0, inplace=False)\n            (grn): GlobalResponseNorm()\n            (fc2): Linear(in_features=768, out_features=192, bias=True)\n            (drop2): Dropout(p=0.0, inplace=False)\n          )\n          (shortcut): Identity()\n          (drop_path): Identity()\n        )\n        (1): ConvNeXtBlock(\n          (conv_dw): Conv2d(192, 192, kernel_size=(7, 7), stride=(1, 1), padding=(3, 3), groups=192)\n          (norm): LayerNorm((192,), eps=1e-06, elementwise_affine=True)\n          (mlp): GlobalResponseNormMlp(\n            (fc1): Linear(in_features=192, out_features=768, bias=True)\n            (act): GELU()\n            (drop1): Dropout(p=0.0, inplace=False)\n            (grn): GlobalResponseNorm()\n            (fc2): Linear(in_features=768, out_features=192, bias=True)\n            (drop2): Dropout(p=0.0, inplace=False)\n          )\n          (shortcut): Identity()\n          (drop_path): Identity()\n        )\n        (2): ConvNeXtBlock(\n          (conv_dw): Conv2d(192, 192, kernel_size=(7, 7), stride=(1, 1), padding=(3, 3), groups=192)\n          (norm): LayerNorm((192,), eps=1e-06, elementwise_affine=True)\n          (mlp): GlobalResponseNormMlp(\n            (fc1): Linear(in_features=192, out_features=768, bias=True)\n            (act): GELU()\n            (drop1): Dropout(p=0.0, inplace=False)\n            (grn): GlobalResponseNorm()\n            (fc2): Linear(in_features=768, out_features=192, bias=True)\n            (drop2): Dropout(p=0.0, inplace=False)\n          )\n          (shortcut): Identity()\n          (drop_path): Identity()\n        )\n      )\n    )\n    (2): ConvNeXtStage(\n      (downsample): Sequential(\n        (0): LayerNorm2d((192,), eps=1e-06, elementwise_affine=True)\n        (1): Conv2d(192, 384, kernel_size=(2, 2), stride=(2, 2))\n      )\n      (blocks): Sequential(\n        (0): ConvNeXtBlock(\n          (conv_dw): Conv2d(384, 384, kernel_size=(7, 7), stride=(1, 1), padding=(3, 3), groups=384)\n          (norm): LayerNorm((384,), eps=1e-06, elementwise_affine=True)\n          (mlp): GlobalResponseNormMlp(\n            (fc1): Linear(in_features=384, out_features=1536, bias=True)\n            (act): GELU()\n            (drop1): Dropout(p=0.0, inplace=False)\n            (grn): GlobalResponseNorm()\n            (fc2): Linear(in_features=1536, out_features=384, bias=True)\n            (drop2): Dropout(p=0.0, inplace=False)\n          )\n          (shortcut): Identity()\n          (drop_path): Identity()\n        )\n        (1): ConvNeXtBlock(\n          (conv_dw): Conv2d(384, 384, kernel_size=(7, 7), stride=(1, 1), padding=(3, 3), groups=384)\n          (norm): LayerNorm((384,), eps=1e-06, elementwise_affine=True)\n          (mlp): GlobalResponseNormMlp(\n            (fc1): Linear(in_features=384, out_features=1536, bias=True)\n            (act): GELU()\n            (drop1): Dropout(p=0.0, inplace=False)\n            (grn): GlobalResponseNorm()\n            (fc2): Linear(in_features=1536, out_features=384, bias=True)\n            (drop2): Dropout(p=0.0, inplace=False)\n          )\n          (shortcut): Identity()\n          (drop_path): Identity()\n        )\n        (2): ConvNeXtBlock(\n          (conv_dw): Conv2d(384, 384, kernel_size=(7, 7), stride=(1, 1), padding=(3, 3), groups=384)\n          (norm): LayerNorm((384,), eps=1e-06, elementwise_affine=True)\n          (mlp): GlobalResponseNormMlp(\n            (fc1): Linear(in_features=384, out_features=1536, bias=True)\n            (act): GELU()\n            (drop1): Dropout(p=0.0, inplace=False)\n            (grn): GlobalResponseNorm()\n            (fc2): Linear(in_features=1536, out_features=384, bias=True)\n            (drop2): Dropout(p=0.0, inplace=False)\n          )\n          (shortcut): Identity()\n          (drop_path): Identity()\n        )\n        (3): ConvNeXtBlock(\n          (conv_dw): Conv2d(384, 384, kernel_size=(7, 7), stride=(1, 1), padding=(3, 3), groups=384)\n          (norm): LayerNorm((384,), eps=1e-06, elementwise_affine=True)\n          (mlp): GlobalResponseNormMlp(\n            (fc1): Linear(in_features=384, out_features=1536, bias=True)\n            (act): GELU()\n            (drop1): Dropout(p=0.0, inplace=False)\n            (grn): GlobalResponseNorm()\n            (fc2): Linear(in_features=1536, out_features=384, bias=True)\n            (drop2): Dropout(p=0.0, inplace=False)\n          )\n          (shortcut): Identity()\n          (drop_path): Identity()\n        )\n        (4): ConvNeXtBlock(\n          (conv_dw): Conv2d(384, 384, kernel_size=(7, 7), stride=(1, 1), padding=(3, 3), groups=384)\n          (norm): LayerNorm((384,), eps=1e-06, elementwise_affine=True)\n          (mlp): GlobalResponseNormMlp(\n            (fc1): Linear(in_features=384, out_features=1536, bias=True)\n            (act): GELU()\n            (drop1): Dropout(p=0.0, inplace=False)\n            (grn): GlobalResponseNorm()\n            (fc2): Linear(in_features=1536, out_features=384, bias=True)\n            (drop2): Dropout(p=0.0, inplace=False)\n          )\n          (shortcut): Identity()\n          (drop_path): Identity()\n        )\n        (5): ConvNeXtBlock(\n          (conv_dw): Conv2d(384, 384, kernel_size=(7, 7), stride=(1, 1), padding=(3, 3), groups=384)\n          (norm): LayerNorm((384,), eps=1e-06, elementwise_affine=True)\n          (mlp): GlobalResponseNormMlp(\n            (fc1): Linear(in_features=384, out_features=1536, bias=True)\n            (act): GELU()\n            (drop1): Dropout(p=0.0, inplace=False)\n            (grn): GlobalResponseNorm()\n            (fc2): Linear(in_features=1536, out_features=384, bias=True)\n            (drop2): Dropout(p=0.0, inplace=False)\n          )\n          (shortcut): Identity()\n          (drop_path): Identity()\n        )\n        (6): ConvNeXtBlock(\n          (conv_dw): Conv2d(384, 384, kernel_size=(7, 7), stride=(1, 1), padding=(3, 3), groups=384)\n          (norm): LayerNorm((384,), eps=1e-06, elementwise_affine=True)\n          (mlp): GlobalResponseNormMlp(\n            (fc1): Linear(in_features=384, out_features=1536, bias=True)\n            (act): GELU()\n            (drop1): Dropout(p=0.0, inplace=False)\n            (grn): GlobalResponseNorm()\n            (fc2): Linear(in_features=1536, out_features=384, bias=True)\n            (drop2): Dropout(p=0.0, inplace=False)\n          )\n          (shortcut): Identity()\n          (drop_path): Identity()\n        )\n        (7): ConvNeXtBlock(\n          (conv_dw): Conv2d(384, 384, kernel_size=(7, 7), stride=(1, 1), padding=(3, 3), groups=384)\n          (norm): LayerNorm((384,), eps=1e-06, elementwise_affine=True)\n          (mlp): GlobalResponseNormMlp(\n            (fc1): Linear(in_features=384, out_features=1536, bias=True)\n            (act): GELU()\n            (drop1): Dropout(p=0.0, inplace=False)\n            (grn): GlobalResponseNorm()\n            (fc2): Linear(in_features=1536, out_features=384, bias=True)\n            (drop2): Dropout(p=0.0, inplace=False)\n          )\n          (shortcut): Identity()\n          (drop_path): Identity()\n        )\n        (8): ConvNeXtBlock(\n          (conv_dw): Conv2d(384, 384, kernel_size=(7, 7), stride=(1, 1), padding=(3, 3), groups=384)\n          (norm): LayerNorm((384,), eps=1e-06, elementwise_affine=True)\n          (mlp): GlobalResponseNormMlp(\n            (fc1): Linear(in_features=384, out_features=1536, bias=True)\n            (act): GELU()\n            (drop1): Dropout(p=0.0, inplace=False)\n            (grn): GlobalResponseNorm()\n            (fc2): Linear(in_features=1536, out_features=384, bias=True)\n            (drop2): Dropout(p=0.0, inplace=False)\n          )\n          (shortcut): Identity()\n          (drop_path): Identity()\n        )\n      )\n    )\n    (3): ConvNeXtStage(\n      (downsample): Sequential(\n        (0): LayerNorm2d((384,), eps=1e-06, elementwise_affine=True)\n        (1): Conv2d(384, 768, kernel_size=(2, 2), stride=(2, 2))\n      )\n      (blocks): Sequential(\n        (0): ConvNeXtBlock(\n          (conv_dw): Conv2d(768, 768, kernel_size=(7, 7), stride=(1, 1), padding=(3, 3), groups=768)\n          (norm): LayerNorm((768,), eps=1e-06, elementwise_affine=True)\n          (mlp): GlobalResponseNormMlp(\n            (fc1): Linear(in_features=768, out_features=3072, bias=True)\n            (act): GELU()\n            (drop1): Dropout(p=0.0, inplace=False)\n            (grn): GlobalResponseNorm()\n            (fc2): Linear(in_features=3072, out_features=768, bias=True)\n            (drop2): Dropout(p=0.0, inplace=False)\n          )\n          (shortcut): Identity()\n          (drop_path): Identity()\n        )\n        (1): ConvNeXtBlock(\n          (conv_dw): Conv2d(768, 768, kernel_size=(7, 7), stride=(1, 1), padding=(3, 3), groups=768)\n          (norm): LayerNorm((768,), eps=1e-06, elementwise_affine=True)\n          (mlp): GlobalResponseNormMlp(\n            (fc1): Linear(in_features=768, out_features=3072, bias=True)\n            (act): GELU()\n            (drop1): Dropout(p=0.0, inplace=False)\n            (grn): GlobalResponseNorm()\n            (fc2): Linear(in_features=3072, out_features=768, bias=True)\n            (drop2): Dropout(p=0.0, inplace=False)\n          )\n          (shortcut): Identity()\n          (drop_path): Identity()\n        )\n        (2): ConvNeXtBlock(\n          (conv_dw): Conv2d(768, 768, kernel_size=(7, 7), stride=(1, 1), padding=(3, 3), groups=768)\n          (norm): LayerNorm((768,), eps=1e-06, elementwise_affine=True)\n          (mlp): GlobalResponseNormMlp(\n            (fc1): Linear(in_features=768, out_features=3072, bias=True)\n            (act): GELU()\n            (drop1): Dropout(p=0.0, inplace=False)\n            (grn): GlobalResponseNorm()\n            (fc2): Linear(in_features=3072, out_features=768, bias=True)\n            (drop2): Dropout(p=0.0, inplace=False)\n          )\n          (shortcut): Identity()\n          (drop_path): Identity()\n        )\n      )\n    )\n  )\n  (norm_pre): Identity()\n  (head): NormMlpClassifierHead(\n    (global_pool): SelectAdaptivePool2d(pool_type=avg, flatten=Identity())\n    (norm): LayerNorm2d((768,), eps=1e-06, elementwise_affine=True)\n    (flatten): Flatten(start_dim=1, end_dim=-1)\n    (pre_logits): Identity()\n    (drop): Dropout(p=0.0, inplace=False)\n    (fc): Linear(in_features=768, out_features=1000, bias=True)\n  )\n)\n\n\n\n# Option A: if model.forward_features exists:\ndef extract_backbone_features(x):\n    # x: tensor (B,3,H,W)\n    feat_map = model.forward_features(x)  # tensor shape: (B, C, H', W')\n    # Usually, to get a single vector per image, apply global pooling:\n    # Many timm models have model.global_pool or model.fc (depending on arch).\n   
…
rd_tokenize\n\n# Create the large corpus by joining all text from all authors\nall_text = \" \".join(df[\"text\"].tolist())\n\nclean_text = clean_text(all_text)\n\n\n# Load the tokenizer and model from Hugging Face\nfrom transformers import AutoTokenizer, AutoModel\nimport torch\n\n# We will use the Legal-BERT model for this task\ntokenizer = AutoTokenizer.from_pretrained('nlpaueb/legal-bert-base-uncased')\nmodel = AutoModel.from_pretrained('nlpaueb/legal-bert-base-uncased')\n\n# set the model to evaluation mode\nmodel.eval()\n\nBertModel(\n  (embeddings): BertEmbeddings(\n    (word_embeddings): Embedding(30522, 768, padding_idx=0)\n    (position_embeddings): Embedding(512, 768)\n    (token_type_embeddings): Embedding(2, 768)\n    (LayerNorm): LayerNorm((768,), eps=1e-12, elementwise_affine=True)\n    (dropout): Dropout(p=0.1, inplace=False)\n  )\n  (encoder): BertEncoder(\n    (layer): ModuleList(\n      (0-11): 12 x BertLayer(\n        (attention): BertAttention(\n          (self): BertSdpaSelfAttention(\n            (query): Linear(in_features=768, out_features=768, bias=True)\n            (key): Linear(in_features=768, out_features=768, bias=True)\n            (value): Linear(in_features=768, out_features=768, bias=True)\n            (dropout): Dropout(p=0.1, inplace=False)\n          )\n          (output): BertSelfOutput(\n            (dense): Linear(in_features=768, out_features=768, bias=True)\n            (LayerNorm): LayerNorm((768,), eps=1e-12, elementwise_affine=True)\n            (dropout): Dropout(p=0.1, inplace=False)\n          )\n        )\n        (intermediate): BertIntermediate(\n          (dense): Linear(in_features=768, out_features=3072, bias=True)\n          (intermediate_act_fn): GELUActivation()\n        )\n        (output): BertOutput(\n          (dense): Linear(in_features=3072, out_features=768, bias=True)\n          (LayerNorm): LayerNorm((768,), eps=1e-12, elementwise_affine=True)\n          (dropout): Dropout(p=0.1, inplace=False)\n        )\n      )\n    )\n  )\n  (pooler): BertPooler(\n    (dense): Linear(in_features=768, out_features=768, bias=True)\n    (activation): Tanh()\n  )\n)\n\n\n\n# Create the word embeddings\n# Tokenize the cleaned text into words\ntokens = word_tokenize(clean_text)\n\n# Get unique words to avoid redundant computation\nunique_tokens = list(set(tokens))\n\n# Print the shape of unique tokens\nprint(f'There are {len(unique_tokens)} unique tokens in this corpus.')\n\nThere a
…
